new/XMKG_MODEL.tar (torch, 173375 bytes, 2 tensors)

weight f4 [1687, 25]
0	0xbf796d6e	-0.974326
1	0x3ed4229e	0.4143266
2	0xbe8a2217	-0.26979133
3	0xbf02b235	-0.5105317
4	0xbf01d9be	-0.50722873
5	0x3e9b8869	0.3037751
6	0x3e7aa755	0.24477895
7	0xbf0f4a88	-0.559731
8	0xbe0fb947	-0.14035521
9	0x3e872508	0.2639544
10	0xbf06d62f	-0.5267057
11	0x3ec79520	0.3898096
12	0x3f648e62	0.8927976
13	0xbedb8d67	-0.4288132
14	0x3f2b09f2	0.6681205
15	0xbeb5ad23	-0.35483655
16	0x3eab5087	0.33459875
17	0xbf14bf40	-0.58104324
18	0xbf099e09	-0.5375677
19	0xbeafd616	-0.34343022
20	0xbf56f219	-0.8396316
21	0x3ec647f6	0.38726777
22	0xbf633395	-0.8875058
23	0xbf5a59bd	-0.8529318
24	0x3f26c7a5	0.65148383
25	0x3f3684e6	0.71296537
26	0xbdca364a	-0.09873636
27	0x3d8e647c	0.069527596
28	0x3f101bb2	0.5629226
29	0x3e995e11	0.2995458
30	0xbe546f2b	-0.20745532
31	0xbf21e17e	-0.632347
32	0xbe5a8508	-0.2133981
33	0xbe839d12	-0.25705773
34	0x3e607a85	0.21921737
35	0xbea17da4	-0.3154117
36	0x3f6b4b93	0.9191219
37	0xbf649d83	-0.89302844
38	0x3f337d5f	0.70113176
39	0xbe52df44	-0.20592982
40	0x3d2e14e4	0.04250039
41	0xbe6b525f	-0.22980641
42	0xbcbf7e31	-0.023375602
43	0x3f00ea54	0.50357556
44	0x3e7c2422	0.24623159
45	0xbf193286	-0.5984272
46	0xbe9e687d	-0.30939093
47	0x3e97de1a	0.29661638
48	0x3e9918b7	0.29901668
49	0xbf1305de	-0.5743083
50	0x3f197cd3	0.5995609
51	0xbdda4908	-0.10658461
52	0x3e902c4a	0.2815879
53	0x3f18d23b	0.59695786
54	0x3e936948	0.2879126
55	0xbe613057	-0.21991096
56	0xbef831fc	-0.48475635
57	0xbe98170d	-0.29705086
58	0xbe93131b	-0.28725514
59	0x3e521566	0.20515975
60	0xbd78f18f	-0.060777243
61	0x3f5b6800	0.85705566
62	0xbf61b463	-0.88165873
63	0x3f20630d	0.6265114
64	0xbdf6a0cc	-0.12042388
65	0x3e02b2d0	0.12763524
66	0xbe80d774	-0.25164378
67	0xbcd6ae68	-0.02620621
68	0x3ee1f2f6	0.44130677
69	0x3e4aa389	0.19788946
70	0xbf0c98ab	-0.5492045
71	0xbec4dfb8	-0.38451934
72	0x3f116ca9	0.5680643
73	0x3e419b16	0.18906817
74	0xbf188ff5	-0.5959466
75	0x3f3bc158	0.73341894
76	0xbdc14ea2	-0.09438826
77	0x3d29b1cd	0.04142933
78	0x3f096934	0.5367615
79	0x3e9a00ac	0.30078638
80	0xbe521c0f	-0.20518516
81	0xbf1a5744	-0.60289407
82	0xbe572dc1	-0.21013547
83	0xbe80f13f	-0.25184056
84	0x3e4a4361	0.19752266
85	0xbe93db7b	-0.28878388
86	0x3f61a375	0.8814004
87	0xbf6339d0	-0.8876009
88	0x3f3466af	0.7046918
89	0xbeaafc7c	-0.33395755
90	0x3debe7f5	0.11518852
91	0xbea10e54	-0.31456244
92	0xbd215dc3	-0.03939606
93	0x3ecab2b1	0.39589456
94	0x3e68e4c9	0.22743525
95	0xbf13164f	-0.57455915
96	0xbe924895	-0.28571
97	0x3e96f8db	0.29486737
98	0x3e6215e8	0.22078669
99	0xbf0a14cf	-0.53938
100	0x3f355be3	0.70843333
101	0xbde5d908	-0.11223036
102	0x3dc7b40d	0.09751139
103	0x3f14a602	0.5806581
104	0x3e95b1c9	0.29237202
105	0xbe205e0e	-0.15660879
106	0xbf21ee17	-0.6325392
107	0xbe494a36	-0.19657215
108	0xbeac2d86	-0.33628482
109	0x3eea8993	0.45808086
110	0xbe546078	-0.20739925
111	0x3f67eadc	0.9059274
112	0xbf6d3ec5	-0.92673904
113	0x3f31cdd5	0.694547
114	0xbe40208e	-0.18762419
115	0x3d2ef0e8	0.042710215
116	0xbe68116b	-0.22662894
117	0xbcbea4bd	-0.023271913
118	0x3edb6d61	0.42856887
119	0x3e380555	0.17970784
120	0xbf103304	-0.56327844
121	0xbee2d801	-0.44305423
122	0x3eac9d4d	0.3371376
123	0x3e9d1fc5	0.306883
124	0xbf0f8bf2	-0.56072915
125	0x3dc6575c	0.09684631
126	0xbf07b803	-0.53015155
127	0xbec85d85	-0.3913385
128	0x3ee9b5c1	0.4564648
129	0x3f7cb2e6	0.9871048
130	0x3f5bdfdc	0.8588846
131	0xbf558d06	-0.8341831
132	0xbef29ba5	-0.47384372
133	0x3eafa5b8	0.3430612
134	0x3f906fdf	1.128414
135	0x3f30b37b	0.69023865
136	0x3f45eec4	0.7731745
137	0xbdc174ae	-0.09446083
138	0x3e7ff890	0.24997163
139	0xbf36a6b0	-0.71348095
140	0xbe42bc77	-0.19017206
141	0xbec1d966	-0.37861174
142	0xbf31b790	-0.6942072
143	0x3eee20de	0.4650945
144	0x3f6f0fd6	0.9338354
145	0xbe67ccd4	-0.2263673
146	0xbf4b6326	-0.79448164
147	0xbe67873d	-0.22610183
148	0xbbcad86a	-0.0061903493
149	0xbf1df8ae	-0.6170758
150	0xbea7a856	-0.32745618
151	0xbf150389	-0.5820852
152	0xbdc187ac	-0.094497055
153	0x3e05861a	0.13039437
154	0x3f89aaa1	1.0755197
155	0x3f930fdd	1.1489216
156	0xbf751f92	-0.957513
157	0xbe47a084	-0.19494826
158	0x3f80bb2f	1.0057124
159	0x3db58bbd	0.088645436
160	0x3f97445d	1.1817738
161	0x3d9e6a60	0.07735133
162	0x3ddce97a	0.107867196
163	0x3e8aea43	0.27131853
164	0xbf266853	-0.65002936
165	0x3e942a1d	0.2893838
166	0xbe8c16ab	-0.27361044
167	0xbf4f2b18	-0.8092513
168	0xbf050efa	-0.5197598
169	0x3ec889eb	0.39167723
170	0xbeeafc62	-0.45895678
171	0xbee8dfbd	-0.454832
172	0xbdb9115d	-0.09036515
173	0x3f1480fc	0.58009315
174	0xbefd3400	-0.49453735
175	0xbdd2390e	-0.102647886
176	0xbe67cd0d	-0.22636814
177	0xbeb99224	-0.3624431
178	0x3f61c398	0.8818908
179	0x3f49a7f1	0.78771883
180	0x3f236f53	0.6384174
181	0xbf28ae28	-0.6589074
182	0xbee96035	-0.45581213
183	0x3f0d3615	0.5516065
184	0x3f92641a	1.1436799
185	0x3f35d693	0.7103054
186	0x3f2ac82d	0.66711694
187	0xbe52f015	-0.20599397
188	0x3ec4ea12	0.3845983
189	0xbf3b443b	-0.73150986
190	0xbd21f4cc	-0.039540097
191	0x3d5a9b87	0.05337098
192	0xbf170003	-0.5898439
193	0x3ea5da2c	0.32393014
194	0x3f656284	0.8960345
195	0xbd26da0b	-0.040735286
196	0xbf8a2e2e	-1.0795343
197	0xbe6fc252	-0.23413971
198	0x3d1498cb	0.036278527
199	0xbeefd478	-0.46841788
200	0xbe8cf072	-0.27527195
201	0xbf0a7a02	-0.5409242
202	0xbf1c24d6	-0.6099371
203	0xbf55a8a7	-0.8346047
204	0x3f87e076	1.0615375
205	0x3f33bfc9	0.70214516
206	0xbf806bf8	-1.003295
207	0x3ee221b7	0.44166347
208	0x3f13db25	0.57756263
209	0x3eef3224	0.46717942
210	0x3f267a0e	0.6502999
211	0x3e96bc44	0.2944051
212	0xbf155ff9	-0.5834957
213	0x3f0cc221	0.5498372
214	0xbe7cc5ae	-0.24684784
215	0x3ea5bbf2	0.32369953
216	0xbf1285e9	-0.5723558
217	0xbf1f9913	-0.6234295
218	0xbce8cb0b	-0.028417131
219	0x3f8101f9	1.0078727
220	0xbbd84f6b	-0.0066012642
221	0x3ce95e05	0.028487215
222	0x3ea8d5b5	0.32975546
223	0x3a990014	0.0011672997
224	0xbeba3054	-0.36364996
225	0xbe0476fc	-0.12936014
226	0xbe8e6508	-0.27811456
227	0xbe8c5b37	-0.2741334
228	0x3e08c670	0.13356948
229	0x3f784c50	0.96991444
230	0x3f8ee385	1.1163183
231	0xbf2b8a3c	-0.67007804
232	0xbeb58e55	-0.35460153
233	0x3e9afc63	0.3027068
234	0x3f5a443f	0.85260385
235	0x3f3397c8	0.70153475
236	0x3f475c6f	0.7787542
237	0xbd74d6ce	-0.059775166
238	0x3e45c9f6	0.19315323
239	0xbf1b801a	-0.6074234
240	0xbe564231	-0.20923688
241	0x3de881a2	0.113528505
242	0xbf4dabaf	-0.80340093
243	0x3ef134f9	0.47110727
244	0x3f39de26	0.72604597
245	0xbeb60965	-0.35554042
246	0xbf5e2719	-0.8677841
247	0xbef42507	-0.476845
248	0x3f0f834f	0.56059736
249	0xbf0bb5a0	-0.5457401
250	0xbda3b1e4	-0.07992914
251	0xbe930d9c	-0.2872132
252	0xbea9a5d2	-0.33134323
253	0x3f6a0e80	0.91428375
254	0x3f57d12d	0.8430355
255	0x3f1eb25a	0.6199089

weight f4 [27, 25]
0	0xbf84bfea	-1.0371068
1	0xbeb23d0f	-0.3481221
2	0xbed1297b	-0.4085196
3	0x3e1f32c9	0.15546717
4	0x3d3f24d0	0.046665967
5	0x3e03db78	0.1287669
6	0x3e9c1295	0.30482927
7	0xbf08cd52	-0.53438294
8	0x3eccd30c	0.40004766
9	0x3bb87bea	0.005630006
10	0xbf16e596	-0.5894407
11	0xbe9f9ee1	-0.31175902
12	0x3fa34bd8	1.2757521
13	0xbf90e325	-1.1319319
14	0xbec1125a	-0.37709314
15	0xbec7bee3	-0.39012823
16	0x3f797c38	0.9745517
17	0x3e64c89b	0.2234215
18	0xbf0c2c52	-0.5475513
19	0xbf178def	-0.5920095
20	0x3f40fd64	0.75386643
21	0x3e973680	0.29533768
22	0xbf009f5a	-0.5024315
23	0xbf8d9e2f	-1.1063899
24	0x3e2adc7f	0.16685675
25	0xbedc2328	-0.42995572
26	0xbe85b56d	-0.2611498
27	0x3e03c7d8	0.12869203
28	0xbe46cb87	-0.19413577
29	0xbf0024b3	-0.50056
30	0xbf35cadb	-0.7101266
31	0x3ed6ee15	0.41978517
32	0xbc788650	-0.015168741
33	0xbeb1ef12	-0.3475271
34	0xbf451f29	-0.7700067
35	0xbfd030a1	-1.626484
36	0xbeb5e544	-0.35526478
37	0x3f4e3ac6	0.8055843
38	0xbf1e5d8b	-0.61861485
39	0x3d302aea	0.043009676
40	0xbcd7f379	-0.026361214
41	0x3edeb0be	0.4349422
42	0x3f00be33	0.5029022
43	0xbf1e48d2	-0.61829865
44	0xbf9ceed9	-1.226039
45	0x3de218cd	0.110398866
46	0x3f5c5bcc	0.8607757
47	0x3ddabd01	0.10680581
48	0xbf2e6f84	-0.6813891
49	0x3fa32c6e	1.2747934
50	0xbf2b1006	-0.66821325
51	0xbe4c17f4	-0.19931012
52	0xbf071f5f	-0.52782243
53	0x3f00f459	0.50372845
54	0x3ea68551	0.32523587
55	0x3f3c7a12	0.73623765
56	0x3d8b1c42	0.06792499
57	0xbf239ebd	-0.6391409
58	0x3f4a3d3b	0.7899968
59	0x3f041a15	0.516023
60	0xbee812ff	-0.45326993
61	0x3e08cea2	0.13360074
62	0x3f8b57a1	1.0886117
63	0xbf1e2536	-0.6177553
64	0xbedb4dcf	-0.428328
65	0xbea8541a	-0.32876664
66	0x3f25fcba	0.64838755
67	0xbea72b30	-0.32650137
68	0xbf010650	-0.5040026
69	0xbe80a607	-0.2512667
70	0x3ecba9a4	0.39777863
71	0xbe48ea4f	-0.19620632
72	0xbed70dad	-0.4200262
73	0xbf0afc17	-0.5429091
74	0x3f637d94	0.8886349
75	0x3f7a95d6	0.9788488
76	0x3f2521ef	0.64504904
77	0xbeddfb10	-0.43355608
78	0xbf075c03	-0.52874774
79	0x3f03748f	0.5134973
80	0x3e36be18	0.17845953
81	0xbec80571	-0.3906665
82	0xbf8d6a66	-1.1048095
83	0x3ed33898	0.41254115
84	0xbf7ebd49	-0.99507576
85	0x3fb94be2	1.4476283
86	0xbe79ac95	-0.24382241
87	0x3ef36066	0.47534484
88	0x3f5a4fc8	0.85277987
89	0xbf013a6a	-0.5047976
90	0x3f16bb50	0.58879566
91	0xbeb15564	-0.3463546
92	0xbe9099ac	-0.28242242
93	0x3f9df87a	1.2341454
94	0x3ec9e208	0.3943026
95	0xbf202bfb	-0.6256711
96	0x3cc9866f	0.024600236
97	0xbeb05802	-0.34442145
98	0xbf0c6208	-0.54837084
99	0x3f37e06d	0.7182682
100	0x3ede2bdf	0.43392846
101	0xbf08a642	-0.5337869
102	0x3f5b5d24	0.85688996
103	0xbeb2fa11	-0.3495641
104	0xbf99b476	-1.2008197
105	0x3f64de00	0.89401245
106	0x3e87b79f	0.2650728
107	0xbf0cb296	-0.5496
108	0xbf4292bd	-0.76005155
109	0x3e22961c	0.15877575
110	0x3c36c915	0.01115634
111	0xbd244bb2	-0.04011125
112	0xbe9e1fe7	-0.30883715
113	0xbf7cc09f	-0.98731416
114	0xbf0fe26e	-0.5620488
115	0x3f4230f0	0.7585592
116	0x3fa857bf	1.3151778
117	0x3f3f603a	0.74756205
118	0xbf884905	-1.0647284
119	0x3fa64f19	1.2992889
120	0xbe9195b7	-0.28434536
121	0x3f2ad381	0.6672898
122	0x3ef88cf2	0.48545033
123	0x3f011658	0.5042472
124	0xbf2c32a3	-0.67264766
125	0xbf725db1	-0.9467421
126	0x3ebf4a65	0.37361446
127	0xbf01b198	-0.5066161
128	0x3f8c15b0	1.0944118
129	0x3fbf22d6	1.4932506
130	0xbfdc6647	-1.7218713
131	0xbf1d9cb1	-0.6156722
132	0xbeb7757b	-0.35831818
133	0xbf723c09	-0.94622856
134	0xbcbf4f1a	-0.023353148
135	0xbfabedb6	-1.3431919
136	0xbee0f41d	-0.43936244
137	0xbf5385df	-0.82626146
138	0xbf991e3d	-1.1962353
139	0x3f016419	0.5054336
140	0x3d975829	0.07389862
141	0x3f66f514	0.9021771
142	0xbf0b63af	-0.5444898
143	0xbf761d1c	-0.9613817
144	0xbf05f434	-0.5232575
145	0xbc10f422	-0.008847268
146	0x3eb2ab8b	0.34896502
147	0x3ea657fd	0.32489005
148	0x3efddf4d	0.49584427
149	0x3c51c878	0.012804143
150	0xbfa0440f	-1.252077
151	0x3f8ec8eb	1.1155065
152	0xbf4e1b2e	-0.8051022
153	0x3ee9ace7	0.45639727
154	0x3f1f0ed6	0.6213201
155	0x3f004184	0.5009997
156	0x3f420cee	0.7580098
157	0xbfb3ff99	-1.4062377
158	0xbee7a7f8	-0.45245337
159	0x3ed9674d	0.42461625
160	0xbfca928e	-1.5825975
161	0x3f398186	0.7246326
162	0x3f9e37b6	1.2360752
163	0xbf346e2f	-0.70480627
164	0xbf8220f5	-1.0166308
165	0xbf85cc69	-1.0453006
166	0x3ec91cbb	0.39279732
167	0xbf5b4505	-0.8565219
168	0x3ef29754	0.4738108
169	0x3f85b8c4	1.0447011
170	0x3f1a7e95	0.603494
171	0x3d056097	0.03256282
172	0x3e599459	0.21247996
173	0xbeea8035	-0.4580094
174	0x3fb59dbf	1.4188765
175	0xbf5ece94	-0.87033963
176	0x3ea5da2c	0.32393014
177	0x3ed132eb	0.4085916
178	0xbf5a7493	-0.8533413
179	0xbf4c76c4	-0.7986872
180	0x3f91a165	1.1377379
181	0x3f75a364	0.9595244
182	0x3f65a766	0.89708555
183	0x3d50eb32	0.05100555
184	0x3fa14aec	1.2600989
185	0xbd817f5e	-0.063231215
186	0xbf68333b	-0.9070317
187	0x3f80caeb	1.0061926
188	0xbf75acf2	-0.9596702
189	0x3ec7e6b4	0.390432
190	0xbe9461b3	-0.2898079
191	0xbe91f38f	-0.28506133
192	0xbd4f79e9	-0.050653372
193	0xbe94da8b	-0.29072985
194	0xbf901902	-1.1257632
195	0x3f050987	0.5196766
196	0xbd5a9674	-0.05336614
197	0xbf138ec3	-0.5763971
198	0xbe28643d	-0.16444488
199	0xbe3c0228	-0.18360198
200	0xbd66ee56	-0.05637964
201	0x3d2e9ed3	0.042631935
202	0xbf479f46	-0.77977407
203	0xbf428c2f	-0.75995153
204	0xbe8cdc01	-0.275116
205	0x3eed891b	0.46393666
206	0x3f3e0e06	0.7424015
207	0x3eb8ffab	0.3613256
208	0x3f8e7c74	1.113173
209	0xbe65f46e	-0.22456524
210	0x3f6436ec	0.89146304
211	0xbf892373	-1.0713943
212	0x3fa68f50	1.3012486
213	0xbf5bf2ba	-0.85917246
214	0xbea04d0f	-0.3130879
215	0xbf706a1d	-0.93911916
216	0xbedb499a	-0.4282959
217	0xbe574e9e	-0.21026084
218	0xbfa16acb	-1.2610716
219	0x3d7a246f	0.061069902
220	0x3f28a292	0.6587306
221	0x3ea3230e	0.31862682
222	0xbf907f27	-1.1288804
223	0x3f1461ee	0.5796193
224	0x3f2e4a4e	0.6808213
225	0x3f4075fa	0.7518002
226	0xbf0bbf8c	-0.5458915
227	0x3f8aae19	1.083438
228	0x3e631b40	0.22178364
229	0xbf2afd14	-0.66792417
230	0x3d43d03e	0.047806017
231	0xbe2bf4e3	-0.16792636
232	0x3f0bb09c	0.5456636
233	0xbd9e6cdb	-0.07735606
234	0x3e275a95	0.16343148
235	0x3ec94550	0.39310694
236	0x3eb29848	0.34881806
237	0xbf1cc08d	-0.6123131
238	0xbe5e654a	-0.21718326
239	0xbe319938	-0.17343605
240	0x3dcbebf4	0.09957114
241	0xbe7142e2	-0.2356067
242	0xbf0366c9	-0.5132871
243	0xbf4bb77b	-0.79576844
244	0xbf1aca3f	-0.60464853
245	0x3e4d655b	0.20058195
246	0xbf5bd77b	-0.8587567
247	0x3c2023c2	0.00977415
248	0x3e495d55	0.1966451
249	0xbe701577	-0.23445688
250	0x3d4c9445	0.04994609
251	0xbeb77040	-0.35827827
252	0x3d8d2e08	0.068935454
253	0xbf677a03	-0.9042055
254	0x3eec6171	0.46168092
255	0xbf3bab79	-0.7330852
